hw13/student_best.ckpt (torch, 264927 bytes, 47 tensors)

conv1.weight f4 [64, 3, 7, 7]
0.0042597507 -0.038080018 -0.031782296 -0.00811507 -0.014410471 0.010934103 0.0051873596 -0.0033472138
-0.13117555 0.04043171 0.0025677828 -0.0040412494 0.09166116 -0.008648288 -0.0430417 -0.03247188
-0.051075485 0.05731522 0.08564137 0.01779473 -0.0017242932 -7.9235164e-05 -0.1266122 -0.11522944
-0.0159236 0.06365001 0.05564432 0.09371552 -0.09093037 -0.14460188 -0.044233963 0.033387415
0.064068235 0.12649196 0.012775208 0.047262076 -0.053764384 -0.0039844997 -0.023205124 0.054541774
0.052972134 0.039852437 0.0079446575 -0.008874141 -0.10159106 -0.016089363 0.027990133 -0.005071376
0.067130946 -0.030317187 -0.001961173 -0.04995703 0.060081705 -0.0045362515 0.10070695 0.039955422
-0.12593132 -0.034608945 -0.069138095 0.07830366 0.012222238 0.053202834 0.015778014 -0.11733634
-0.037022557 -0.046767667 -0.04733674 0.040147625 0.04082812 0.08164241 -0.048435643 -0.14295197
-0.06860483 0.06373679 0.057672653 0.14337243 0.08393138 -0.06425819 -0.051864017 -0.13085961
-0.022628065 0.1050078 0.14419876 0.04713018 -0.101061955 -0.1542939 -0.034610935 0.037145592
-0.020336231 0.080707155 0.033981685 -0.04976423 -0.078519985 -0.04414269 -0.0907635 0.05382901
0.11334742 0.052868895 -0.048242085 -0.06345226 0.041998204 -0.035051752 0.06515417 0.0054225656
0.03174094 0.023115726 -0.046481654 -0.0601542 0.005526056 0.04957046 0.0826386 0.13646245
-0.1197949 -0.13939095 -0.04318981 -0.015304533 0.09322967 0.16700779 0.04888406 -0.06625353
-0.1561139 -0.0073464382 0.039093066 0.014431607 0.094629064 0.094205216 -0.022976458 -0.087249994
-0.06964024 0.021155173 0.002599601 0.047867797 0.07342841 -0.0500225 -0.112708926 -0.12558375
-0.03652237 0.0077319853 0.14081663 0.14667076 -0.036848806 -0.09527518 -0.031010937 0.05941968
-0.034909226 0.001731797 0.077758245 0.00829469 0.10247717 0.08337032 0.044826422 0.035946097
-0.06014743 -0.016016357 -0.13712019 -0.07733998 -0.036640853 0.040709015 0.05337817 -0.067225255
0.02618554 -0.07693374 -0.071019426 -0.07967304 -0.08357947 -0.009467269 -0.03718458 0.031469285
0.07828524 0.0012849264 -0.04897247 -0.11146499 0.048611354 0.061457057 -0.027610945 -0.03672574
-0.0009345336 0.0021874777 -0.015399754 -0.055790104 -0.030459411 0.012178571 0.12494205 0.118776456
0.13935567 0.032002497 0.09356915 0.017223105 0.048006468 -0.0068578636 -0.00632159 0.12787172
0.0707181 0.009058766 0.027903678 0.042898934 -0.081723765 -0.04459966 0.024564654 -0.021486849
-0.07316232 0.021296019 -0.09923362 -0.17473285 -0.035219885 -0.0023215606 -0.105540976 -0.08805759
-0.045317046 -0.10329116 -0.051639542 -0.17040579 -0.14116675 -0.09310332 -0.1338712 -0.04448461
-0.08732818 -0.016203014 -0.014012413 -0.14355177 -0.038911834 -0.0890206 0.040096674 0.03435279
0.12633578 0.049393784 0.09118074 0.0364679 -0.02165502 0.030186132 0.033915997 0.10525819
0.0654905 0.12759334 0.049059533 0.10374225 0.048232768 -0.011174736 0.035869896 0.038462054
0.02831703 0.08280641 0.059570875 0.06635596 0.03024858 0.05327775 0.007638908 -0.003198742
-0.045526586 -0.12739083 -0.12455247 -0.051586963 -0.030355357 -0.12497792 -0.048432454 -0.042953443
00000000: 6195 8b3b cbf9 1bbd 272e 02bd 12f5 04bc
00000010: e519 6cbc f424 333c bafa a93b ee5c 5bbb
00000020: e252 06be b99b 253d 3f48 283b 756c 84bb
00000030: d9b8 bb3d 8db1 0dbc 7e4c 30bd 3c01 05bd
00000040: 8734 51bd 5dc3 6a3d be64 af3d 41c6 913c
00000050: ae01 e2ba 0e2b a6b8 a1a6 01be 6afd ebbd
00000060: 3672 82bc f05a 823d 4ceb 633d eced bf3d
00000070: b439 babd 8412 14be ac2e 35bd 3ec1 083d
00000080: 3536 833d 1c87 013e 1b4f 513c e195 413d
00000090: 0b38 5cbd 6890 82bb ac18 bebc 3267 5f3d
000000a0: 4ff9 583d 4f3c 233d 4f2a 023c d864 11bc
000000b0: f90e d0bd d7cd 83bc 904b e53c c92d a6bb
000000c0: f37b 893d c05b f8bc 0687 00bb be9f 4cbd
000000d0: 3c18 763d d6a4 94bb 723f ce3d 4ca8 233d
000000e0: 24f4 00be 1cc2 0dbd 4698 8dbd ab5d a03d
000000f0: c83f 483c 37eb 593d e540 813c 094e f0bd
00000100: f7a4 17bd 748f 3fbd 2be4 41bd d671 243d
00000110: 633b 273d 2334 a73d 7464 46bd 0062 12be
00000120: b080 8cbd 6f88 823d 293a 6c3d 39d0 123e
00000130: 37e4 ab3d cc99 83bd 5d6f 54bd 1000 06be
00000140: 7e5e b9bc 540e d73d d7a8 133e 930b 413d
00000150: 92f9 cebd 38ff 1dbe 32c4 0dbd fa25 183d
00000160: 2b98 a6bc cb49 a53d 6130 0b3d 94d5 4bbd
00000170: 16cf a0bd f7ce 34bd 37e2 b9bd cf7b 5c3d
00000180: b122 e83d 0e8d 583d 7e99 45bd 42f3 81bd
00000190: 4f06 2c3d 6d92 0fbd 8d6f 853d c7af b13b
000001a0: ca02 023d 315d bd3c 8c63 3ebd 4064 76bd
000001b0: eb13 b53b 650a 4b3d 6d3e a93d d0bc 0b3e
000001c0: 0757 f5bd 80bc 0ebe cce7 30bd ddbf 7abc
000001d0: 32ef be3d 1704 2b3e a73a 483d eeaf 87bd
000001e0: 52dc 1fbe 64ba f0bb 0d20 203d 8c72 6c3c
000001f0: e2cc c13d aaee c03d 2039 bcbc 20b0 b2bd
00000200: 8b9f 8ebd 9d4d ad3c 115e 2a3b 0611 443d
00000210: a261 963d 65e4 4cbd f0d3 e6bd 0799 00be
00000220: 7b98 15bd 985c fd3b 3c32 103e dc30 163e
00000230: c6ee 16bd a21f c3bd a60a febc 0d62 733d
00000240: fafc 0ebd 77fd e23a b73f 9f3d 74e6 073c
00000250: 8ddf d13d 0fbe aa3d e99b 373d 373c 133d
00000260: 275d 76bd bc34 83bc 3c69 0cbe 6c64 9ebd
00000270: b814 16bd 7fbe 263d 11a3 5a3d 65ad 89bd
00000280: 0f83 d63c 708f 9dbd a272 91bd 9e2b a3bd
00000290: b72b abbd 9b1c 1bbc dc4e 18bd f0e5 003d
000002a0: 0354 a03d fa6a a83a 5b97 48bd c247 e4bd
000002b0: b31c 473d 65ba 7b3d 5930 e2bc bb6d 16bd
000002c0: 7dfb 74ba c95b 0f3b 404f 7cbc 2a84 64bd
000002d0: 0486 f9bc a188 473c 9ee1 ff3d 1241 f33d
000002e0: 41b3 0e3e 0d15 033d 2fa1 bf3d 7817 8d3c
000002f0: 6ea2 443d eeb7 e0bb 5725 cfbb cef0 023e
00000300: a7d4 903d 386b 143c 4196 e43c cbb6 2f3d
00000310: ca5e a7bd 22ae 36bd d03b c93c 3005 b0bc
00000320: 20d6 95bd fd74 ae3c ff3a cbbd 2bed 32be
00000330: ba42 10bd 5325 18bb de25 d8bd 8a57 b4bd
00000340: 5e9e 39bd 518a d3bd fc83 53bd db7e 2ebe
00000350: 048e 10be f4ac bebd 8815 09be 7f35 36bd
00000360: 1ed9 b2bd 2fbc 84bc 5294 65bc 3cff 12be
00000370: 0462 1fbd 6f50 b6bd 693c 243d 83b5 0c3d
00000380: 2b5e 013e 2351 4a3d f8bc ba3d 5d5f 153d
00000390: de65 b1bc e848 f73c 80eb 0a3d 9b91 d73d
000003a0: e21f 863d d4a7 023e a6f2 483d d176 d43d
000003b0: b98f 453d 3d16 37bc 50ec 123d 638a 1d3d
000003c0: 1ef9 e73c 6896 a93d 9700 743d a2e5 873d
000003d0: dfcb f73c c539 5a3d ce4f fa3b fca1 51bb
000003e0: 167a 3abd be72 02be 5e15 ffbd da4c 53bd
000003f0: ccab f8bc 6cf4 ffbd 1c61 46bd f3ef 2fbd

bn1.weight f4 [64]
0.68252033 0.55047256 0.24031286 0.34872058 0.12723231 0.08538818 0.30872738 0.48042282
0.49076703 0.6255511 0.6012219 0.4097844 0.33150327 0.3247579 0.2609354 0.60018975
0.16768847 0.3118202 0.65159374 0.471725 0.31576 0.5726225 0.37382963 0.42811823
0.40216488 0.081246145 0.36196807 0.30088395 0.4747495 0.6325845 0.4910446 0.45495746
0.28512043 0.28005424 0.664447 0.5686946 0.64603764 0.1601848 0.46664053 0.534195
0.19975942 0.30577043 0.1918856 0.22368473 0.39338034 0.3352082 0.57294446 0.44889483
0.48040944 0.6351452 0.72200054 0.26517805 0.49598867 0.05005708 0.099689856 0.4476323
0.41416094 0.34924355 0.2762959 0.6157882 0.26495734 0.38811967 0.40425363 0.60169476
00000000: a7b9 2e3f c5eb 0c3f 9314 763e 818b b23e
00000010: 3049 023e 00e0 ae3d 8411 9e3e fbf9 f53e
00000020: d145 fb3e 1e24 203f aee9 193f 43cf d13e
00000030: ccba a93e ab46 a63e 5399 853e 09a6 193f
00000040: 87b6 2b3e e6a6 9f3e d9ce 263f f085 f13e
00000050: 4bab a13e 6397 123f 9966 bf3e 5032 db3e
00000060: 8ee8 cd3e 6164 a63d e153 b93e 760d 9a3e
00000070: 5e12 f33e 0ff1 213f 336a fb3e 2ff0 e83e
00000080: 4efb 913e 4563 8f3e 3319 2a3f f895 113f
00000090: b962 253f 7c07 243e 82eb ee3e 01c1 083f
000000a0: bc8d 4c3e f18d 9c3e a97d 443e 9c0d 653e
000000b0: 2669 c93e 69a0 ab3e 7dac 123f 8bd5 e53e
000000c0: 3af8 f53e e098 223f 07d5 383f 6bc5 873e
000000d0: 3af2 fd3e a708 4d3d 322a cc3d 1030 e53e
000000e0: e70c d43e 0dd0 b23e a876 8d3e 4ca4 1d3f
000000f0: 7da8 873e 9fb7 c63e 55fa ce3e ab08 1a3f

bn1.bias f4 [64]
0.05731986 0.095235676 0.47267997 0.073718995 0.4597659 0.47587478 0.3158427 0.014080913
0.22708984 0.04059444 -0.07023433 -0.25833607 0.36038804 0.42229992 0.38200358 0.041146535
0.38704798 0.08248094 -0.0033948945 0.064019464 -0.07802256 0.040123966 0.38839376 0.038747307
0.34936094 0.56355125 -0.14885686 0.46654648 0.31807163 0.13761768 0.042773206 0.1564832
0.37553978 0.32391468 -0.0235593 0.053881615 0.11851187 0.42939562 -0.090662375 -0.027235828
0.55209184 0.39824572 0.4283043 0.39380923 0.28188384 0.042979777 0.016856277 -0.03664243
0.28524798 0.048975077 0.084870204 0.27688318 0.09922771 0.48485628 0.5891903 0.2862554
0.090329096 0.179177 0.39146882 -0.040498555 0.41853046 0.1482894 0.30136353 0.12299734
00000000: 3bc8 6a3d ec0a c33d 1c03 f23e fcf9 963d
00000010: 7066 eb3e dca5 f33e 22b6 a13e a1b3 663c
00000020: 3d8a 683e 5b46 263d 04d7 8fbd a044 84be
00000030: c884 b83e b237 d83e f995 c33e 4589 283d
00000040: 272b c63e c4eb a83d e17c 5ebb a31c 833d
00000050: 4bca 9fbd 0759 243d 8cdb c63e 7fb5 1e3d
00000060: 70df b23e e544 103f ef6d 18be 2edf ee3e
00000070: 49da a23e a6eb 0c3e f532 2f3d 223d 203e
00000080: c046 c03e 25d8 a53e 6fff c0bc f8b2 5c3d
00000090: 5ab6 f23d bed9 db3e 32ad b9bd ac1d dfbc
000000a0: e455 0d3f dde6 cb3e b44a db3e 5da1 c93e
000000b0: 1453 903e 900b 303d 2d16 8a3c 5f16 16bd
000000c0: 060c 923e 179a 483d 6ed0 ad3d a2c3 8d3e
000000d0: e637 cb3d 153f f83e 2dd5 163f 1190 923e
000000e0: 76fe b83d 2d7a 373e 9a6e c83e d0e1 25bd
000000f0: a049 d63e 2dd9 173e 524c 9a3e 08e6 fb3d

bn1.running_mean f4 [64]
-0.025778025 -0.029331408 0.15427606 -0.017208835 -0.18528411 -0.24818687 -0.07623406 -0.028903985
-0.019316439 0.045860816 -0.0110562835 0.015419765 -0.12599635 0.8705369 0.27263805 0.029376151
-0.7751381 0.03679382 0.03489237 -0.54759073 -0.06168952 -0.048744522 0.14127238 0.031895638
0.12096938 -0.021072721 0.003907195 -0.32471034 0.016869904 -0.0036520064 0.094575346 0.0819397
0.310003 0.025298992 0.040017247 -0.07866427 -0.04331784 0.065297455 0.32032204 -0.021551203
0.4444443 0.031951766 0.03487783 -0.4910362 -0.014838805 -0.045264 -0.39337334 0.009507888
-0.17989443 -0.045554362 0.04291414 0.03992089 -0.01808723 0.55975854 0.20403409 -0.6311078
-0.05129313 -0.019881945 0.14903672 -0.027651658 -0.1971107 0.035431363 -0.009710247 0.09990885
00000000: 702c d3bc 6c48 f0bc 8bfa 1d3e 8bf9 8cbc
00000010: 1ebb 3dbe b324 7ebe 9a20 9cbd 0dc8 ecbc
00000020: 823d 9ebc 8dd8 3b3d 6a25 35bc 2fa3 7c3c
00000030: 3005 01be 82db 5e3f 3797 8b3e 41a6 f03c
00000040: 736f 46bf 1eb5 163d 4deb 0e3d e82e 0cbf
00000050: 26ae 7cbd 56a8 47bd b5a9 103e 00a5 023d
00000060: cbbe f73d b3a0 acbc ed07 803b 6f40 a6be
00000070: c132 8a3c 8056 6fbb b8b0 c13d 00d0 a73d
00000080: b7b8 9e3e d53f cf3c 20e9 233d bc1a a1bd
00000090: 0c6e 31bd acba 853d 4001 a43e 268c b0bc
000000a0: 348e e33e dbdf 023d 0edc 0e3d 1969 fbbe
000000b0: 761e 73bc be66 39bd 3b68 c9be f9c6 1b3c
000000c0: 3f36 38be 3697 3abd bdc6 2f3d 1684 233d
000000d0: ac2b 94bc 564c 0f3f 50ee 503e 4890 21bf
000000e0: bf18 52bd 76df a2bc 159d 183e bb85 e2bc
000000f0: 63d7 49be 7a20 113d ba17 1fbc 039d cc3d

bn1.running_var f4 [64]
2.8517919 2.30964 0.9375861 1.7399464 1.0570427 0.7937505 0.20521261 1.7234817
2.328271 0.6921183 1.8840942 0.20821223 0.3283142 5.6143913 4.8477683 2.4355755
3.1014166 1.020664 2.6583567 3.8126004 1.7515488 2.0890596 2.4920406 1.0389837
1.6009622 0.38037878 0.11624832 1.9983866 0.88568896 0.8536662 1.5227739 0.88200414
0.97570306 0.5776075 4.180357 1.8960116 1.7659084 0.11205564 5.8061695 0.73948467
0.9097297 1.6920259 3.025448 8.143406 0.29639232 0.3398035 48.663094 0.25917935
3.5617518 1.1990852 3.0020413 3.1187766 0.63062525 11.282887 0.29686797 3.030063
1.1486459 0.35920617 3.3259206 1.0049299 0.5492084 0.542621 3.241076 0.33436573
00000000: c283 3640 24d1 1340 a505 703f 90b6 de3f
00000010: 2d4d 873f 3c33 4b3f 4123 523e 0c9b dc3f
00000020: 6402 1540 aa2e 313f 002a f13f 9635 553e
00000030: cc18 a83e 18a9 b340 eb20 9b40 78e0 1b40
00000040: 9c7d 4640 1ea5 823f 8422 2a40 a501 7440
00000050: c032 e03f 27b3 0540 987d 1f40 6bfd 843f
00000060: 54ec cc3f 02c1 c23e 9913 ee3d 22cb ff3f
00000070: 83bc 623f de89 5a3f 41ea c23f 06cb 613f
00000080: adc7 793f 16de 133f 7cc5 8540 82b0 f23f
00000090: 4909 e23f 6d7d e53d 24cc b940 de4e 3d3f
000000a0: 0ce4 683f 4e94 d83f f1a0 4140 644b 0241
000000b0: bcc0 973e b9fa ad3e 02a7 4242 28b3 843e
000000c0: bef3 6340 a07b 993f 7221 4040 099a 4740
000000d0: a870 213f b586 3441 14ff 973e 8dec 4140
000000e0: d406 933f dfe9 b73e e2db 5440 8ba1 803f
000000f0: ec98 0c3f 36e9 0a3f ca6d 4f40 fc31 ab3e

layer1.0.weight f4 [64, 1, 3, 3]
0.047220808 -0.039812416 0.050887175 -0.018244507 -0.414667 -0.45448557 0.044709906 -0.021710165
-0.048445903 0.083009645 -0.0099586565 0.25328335 0.07525233 -0.24155983 -0.057382137 0.11725028
-0.1721396 -0.12752116 0.02464685 0.3677066 0.24289021 -0.057271075 0.31999558 0.11497617
-0.13950354 -0.17488985 -0.11724475 -0.027968982 -0.15159966 -0.34509632 0.14820668 0.09485016
-0.1948553 0.14246349 0.22934589 -0.032656703 0.06193756 -0.2947247 -0.074835174 0.11884757
0.028279357 -0.20047101 0.15624014 0.35337782 0.19205159 -0.17142656 -0.3028614 -0.117434286
0.0466336 0.05999598 0.20422512 0.16915251 0.25828952 0.075888395 -0.08438541 -0.12899289
-0.14414333 -0.14826022 0.33969682 0.18052492 -0.2089749 0.06308058 0.2597144 0.0008009724
-0.029055506 -0.01852357 -0.31394204 -0.10959308 0.15948911 -0.08728705 -0.041893926 0.13999394
0.09726079 0.0285632 0.029806497 0.093271956 -0.26375097 -0.24865496 0.017126419 -0.25287488
-0.06386293 0.15554048 0.19342396 0.12537076 -0.07110585 -0.04985984 0.112418056 -0.26160002
-0.43245313 -0.07453806 0.03068573 -0.06888723 -0.12784222 0.09953648 -0.1946454 -0.1240792
-0.02082689 -0.30503047 -0.45699987 -0.20018902 -0.17043865 -0.30109715 -0.009063144 0.14314622
-0.09802099 -0.10755228 -0.09772815 -0.2267392 0.18221839 0.373304 -0.026141025 -0.027344594
0.1507082 0.052504815 -0.29377168 -0.25701016 -0.15418297 0.2874194 0.18328935 0.0047805966
0.24228705 -0.10068577 -0.2526184 0.037314124 -0.24940494 -0.101509176 0.026620356 0.35168603
0.20096624 0.044709202 0.047762472 0.045696434 -0.12611455 -0.34929666 -0.12105643 -0.040737554
-0.08492705 -0.063638456 0.027992938 0.42501053 0.026318602 -0.029294634 0.13104567 0.08884672
-0.1455842 -0.17172465 -0.17572261 0.09194443 0.155967 -0.21797645 0.30401388 0.060320083
0.14109668 0.024817942 0.1661461 -0.019025315 -0.061731704 0.32253695 0.135773 -0.13039456
-0.19455564 -0.038560946 -0.17221914 -0.35575694 -0.2616644 -0.04529325 0.08109026 -0.29147086
0.11163272 0.1819049 0.12894316 0.21406375 0.14944942 0.12655343 -0.07342362 -0.3526075
0.0067700897 0.024104912 -0.30260527 -0.037528586 0.05522818 -0.0181291 0.15637036 -0.37239954
-0.21165735 0.40614444 -0.012934352 0.19707336 0.28462788 -0.025215745 0.04939345 0.06214483
-0.14226453 0.5210506 0.25186107 -0.100249246 0.18330954 0.25126207 -0.12936082 0.06699156
0.109545514 -0.25536376 0.019378822 0.18222505 -0.15029259 0.054596063 0.12381795 -0.0765815
-0.08685104 0.2364448 -0.3528075 -0.1631762 0.09882662 -0.020921312 0.17405318 0.28560394
0.26475745 -0.21851003 -0.32135367 0.15314998 -0.14038351 -0.39793974 0.16007808 0.30367222
0.2625937 -0.07602381 0.02450015 0.032482885 0.008083966 0.50109774 0.15114397 0.01659484
0.041087378 0.09822235 -0.039498482 0.14219087 0.019164143 0.09564959 0.40352437 0.2811114
-0.02532532 0.1833524 0.18715656 -0.03380195 -0.19527814 -0.11207064 0.09388124 -0.22757128
-0.23839176 0.19136804 0.2553685 0.30914956 0.17423353 0.0042514084 -0.15371898 0.21691816
00000000: 9b6a 413d 5812 23bd 126f 503d 8175 95bc
00000010: 3c4f d4be 55b2 e8be bc21 373d 84d9 b1bc
00000020: 366f 46bd f600 aa3d a229 23bc 5bae 813e
00000030: e51d 9a3d 765b 77be 8809 6bbd ea20 f03d
00000040: 5d45 30be e894 02be 31e8 c93c 0a44 bc3e
00000050: 36b8 783e 1395 6abd 76d6 a33e a078 eb3d
00000060: 04da 0ebe 5316 33be 041e f0bd 351f e5bc
00000070: f13c 1bbe 77b0 b0be 7ec3 173e cd40 c23d
00000080: 2688 47be f3e1 113e a6d9 6a3e 09c3 05bd
00000090: 3db2 7d3d 28e6 96be 2f43 99bd 5b66 f33d
000000a0: 1caa e73c 4648 4dbe 6afd 1f3e f0ed b43e
000000b0: 2ca9 443e 728a 2fbe a610 9bbe 6381 f0bd
000000c0: e002 3f3d 58be 753d 6420 513e 5136 2d3e
000000d0: 863e 843e 606b 9b3d 42d2 acbd b616 04be
000000e0: 4f9a 13be 87d1 17be beec ad3e 86db 383e
000000f0: 84fd 55be 6430 813d 49f9 843e 59f8 513a
00000100: d005 eebc bebe 97bc 03bd a0be 5672 e0bd
00000110: 1d51 233e 8ec3 b2bd f798 2bbd 925a 0f3e
00000120: aa30 c73d 5ffd e93c c12c f43c 5e05 bf3d
00000130: 5e0a 87be 689f 7ebe b44c 8c3c d178 81be
00000140: 91ca 82bd 0146 1f3e ee10 463e 3161 003e
00000150: f29f 91bd d539 4cbd 703b e63d 70f0 85be
00000160: 7f6a ddbe 69a7 98bd a460 fb3c bf14 8dbd
00000170: 12e9 02be c8d9 cb3d 2051 47be 3c1d febd
00000180: 279d aabc f42c 9cbe e3fb e9be 5afe 4cbe
00000190: 7887 2ebe 6829 9abe 957d 14bc ec94 123e
000001a0: 3bbf c8bd 5f44 dcbd b225 c8bd 522e 68be
000001b0: 7597 3a3e b421 bf3e b425 d6bc c501 e0bc
000001c0: 4053 1a3e 4a0f 573d 3e69 96be d696 83be
000001d0: 24e2 1dbe a328 933e 34b0 3b3e 8da6 9c3b
000001e0: 191a 783e 5734 cebd 3357 81be b2d6 183d
000001f0: 0264 7fbe 0be4 cfbd ef12 da3c 3110 b43e
00000200: 18ca 4d3e ff20 373d 95a2 433d 2f2c 3b3d
00000210: 2c24 01be 03d7 b2be 6fec f7bd 6cdc 26bd
00000220: 3cee adbd e154 82bd 7251 e53c fb9a d93e
00000230: 1c9a d73c 4dfb efbc d630 063e 45f5 b53d
00000240: 0614 15be 96d8 2fbe a1f0 33be 5c4d bc3d
00000250: d0b5 1f3e 3835 5fbe b5a7 9b3e 3112 773d
00000260: a67b 103e ff4e cb3c 3422 2a3e fada 9bbc
00000270: 62da 7cbd 9023 a53e 1408 0b3e 2786 05be
00000280: 9839 47be 15f2 1dbd 375a 30be c625 b6be
00000290: e0f8 85be 6a85 39bd a612 a63d ab3b 95be
000002a0: b29f e43d 4745 3a3e ad09 043e 8733 5b3e
000002b0: 4509 193e 3997 013e 1f5f 96bd f888 b4be
000002c0: a1d7 dd3b aa77 c53c 14ef 9abe 93b7 19bd
000002d0: f236 623d 7a83 94bc 8d1f 203e 27ab bebe
000002e0: b4bc 58be 2af2 cf3e 9bea 53bc 99cd 493e
000002f0: bfba 913e 4091 cebc c950 4a3d 948b 7e3d
00000300: cbad 11be 9263 053f eff3 803e 7a4f cdbd
00000310: 7fb5 3b3e 6ca5 803e 2a77 04be df32 893d
00000320: 6659 e03d 0abf 82be 56c0 9e3c 3499 3a3e
00000330: 4de6 19be 1fa0 5f3d 4494 fd3d c3d6 9cbd
00000340: f5de b1bd 961e 723e 2fa3 b4be a917 27be
00000350: 9c65 ca3d 2c63 abbc ff3a 323e ae3a 923e
00000360: 4a8e 873e 18c1 5fbe 7888 a4be 59d3 1c3e
00000370: b2c0 0fbe c2be cbbe 82eb 233e ed7a 9b3e
00000380: ae72 863e 5fb2 9bbd 8ab4 c83c c60c 053d
00000390: 9c72 043c f147 003f 7cc5 1a3e e7f1 873c
000003a0: 3d4b 283d cd28 c93d 29c9 21bd 7c9a 113e
000003b0: 1ffe 9c3c efe3 c33d bf9a ce3e d5ed 8f3e
000003c0: 0c77 cfbc bbc0 3b3e f8a5 3f3e ea73 0abd
000003d0: fef6 47be 4b85 e5bd cf44 c03d 7208 69be
000003e0: f81c 74be fcf5 433e a9bf 823e da48 9e3e
000003f0: 466a 323e 664f 8b3b 8268 1dbe cb1f 5e3e

layer1.1.weight f4 [64]
1.3085965 0.7847066 0.7266565 0.9311617 0.8512188 0.9311311 0.88397485 0.9686994
1.1434976 0.8571412 1.0546902 0.7470334 0.77124304 0.85851324 0.93681407 0.87993836
1.0448357 0.94014484 0.71826345 0.45133123 0.74221295 0.8920912 0.89751655 0.82257116
0.7907589 0.7330414 0.6581754 0.90610415 0.92544353 1.0019231 0.71651983 0.90323883
0.85552835 0.92919654 0.9573709 0.76757616 1.1734719 0.5981746 0.81343323 1.1131
0.9643352 0.70657206 0.90040493 1.0364202 0.9336945 0.7866753 0.877456 0.79463613
0.9545691 1.140784 1.1288294 0.89929134 1.1181512 1.0699782 0.9607841 0.7584499
0.6617748 0.8103038 0.7618778 1.1360117 0.6583175 0.95576084 0.8801352 0.67342293
00000000: 1780 a73f 88e2 483f 2906 3a3f 9d60 6e3f
00000010: 7ae9 593f 9c5e 6e3f 2d4c 623f affc 773f
00000020: 215e 923f 9b6d 5b3f 1700 873f 953d 3f3f
00000030: 2f70 453f 86c7 5b3f 0cd3 6f3f a443 613f
00000040: 2dbd 853f 55ad 703f 1de0 373f e314 e73e
00000050: ab01 3e3f 1760 643f a5c3 653f 0694 523f
00000060: 2d6f 4a3f 9aa8 3b3f 2f7e 283f 71f6 673f
00000070: dee9 6c3f 043f 803f d86d 373f a93a 673f
00000080: e803 5b3f d3df 6d3f 4216 753f df7f 443f
00000090: 5434 963f f821 193f 293d 503f 107a 8e3f
000000a0: acde 763f e8e1 343f f080 663f 6ba9 843f
000000b0: 9a06 6f3f 8d63 493f f5a0 603f 466d 4b3f
000000c0: a45e 743f 3605 923f 7b7d 903f f537 663f
000000d0: 941f 8f3f 0cf5 883f f2f5 753f c629 423f
000000e0: 136a 293f 1270 4f3f 6c0a 433f d568 913f
000000f0: 7f87 283f beac 743f 8a50 613f 7265 2c3f

layer1.1.bias f4 [64]
0.023646245 0.25997323 0.39964 0.2406438 0.1383205 0.1852185 0.15397146 0.23036756
0.06690677 0.18537718 0.37864062 0.18497968 0.017573088 0.88537616 0.23013166 0.6018933
0.18086596 0.2914241 0.8921488 1.6206626 0.44104204 0.08904186 0.014773678 0.5089468
0.4678665 0.6505728 0.5269153 0.29018465 0.1911876 0.13518308 0.42179483 0.045487545
0.16211025 0.68594414 0.16449286 0.40052542 -0.0009945969 0.27384758 -0.22214486 -0.16234198
0.3323284 0.3204457 0.4005883 -0.08811557 -0.010551125 0.31063125 -0.19391334 0.5057292
0.13591214 -0.0483504 0.16354594 0.42610556 -0.0133777885 -0.20195514 0.6403089 0.08018415
1.192909 0.29785955 0.5779338 -0.16969484 0.521085 0.09402219 -0.0366195 0.63512576
00000000: c5b5 c13c 361b 853e 9d9d cc3e 546b 763e
00000010: e4a3 0d3e eba9 3d3e b2aa 1d3e 79e5 6b3e
00000020: 6b06 893d 84d3 3d3e 2fdd c13e 506b 3d3e
00000030: 70f5 8f3c 03a8 623f a2a7 6b3e ae15 1a3f
00000040: ed34 393e 8a35 953e dd63 643f df71 cf3f
00000050: 43d0 e13e 945b b63d 4c0d 723c 564a 023f
00000060: 338c ef3e f08b 263f ece3 063f 1593 943e
00000070: afc6 433e 6f6d 0a3e 7ef5 d73e 2651 3a3d
00000080: 3b00 263e 099a 2f3f d170 283e ab11 cd3e
00000090: 225d 82ba c035 8c3e f179 63be fa3c 26be
000000a0: f326 aa3e 7511 a43e e919 cd3e f075 b4bd
000000b0: a0de 2cbc 0f0b 9f3e 3891 46be 7877 013f
000000c0: 8d2c 0b3e 120b 46bd 9678 273e 822a da3e
000000d0: 832e 5bbc 54cd 4ebe 49eb 233f 9637 a43d
000000e0: 3eb1 983f 0c81 983e 78f3 133f 7cc4 2dbe
000000f0: d465 053f b58e c03d 54fe 15bd 9a97 223f

layer1.1.running_mean f4 [64]
-0.41869146 -0.04407704 0.31282398 -0.040491927 0.17739509 0.114191934 0.06032697 -0.09862415
-0.301637 -0.1608108 -0.3725929 -0.22341378 0.0027812552 0.025447946 0.056221142 0.20622107
0.01731626 0.065899014 -0.25173244 -0.07074838 0.07413138 0.43127078 0.01144044 0.023630632
0.029902298 0.5036216 0.33123684 0.019457849 -0.12142302 -0.4540158 0.2556635 0.13274606
0.049712792 -0.22906776 -0.5202172 -0.16355848 -0.44066364 0.63282704 0.18187587 -0.40546674
0.010352311 0.32472345 0.30100673 0.001919857 0.0057897433 -0.024399824 0.12671353 0.23577476
-0.8157503 -0.45021808 -0.4741619 0.20081225 -0.4838931 0.3008993 -0.0072594066 0.15908302
-0.010263706 0.28568065 0.7076892 -0.23566058 0.04854646 -0.19355392 -0.29853183 0.57458717
00000000: ba5e d6be 208a 34bd 772a a03e ddda 25bd
00000010: 0fa7 353e 76dd e93d 6a19 773d 75fb c9bd
00000020: 2a70 9abe 96ab 24be 7fc4 bebe 95c6 64be
00000030: b845 363b 3678 d03c 2448 663d 9e2b 533e
00000040: d4da 8d3c 10f6 863d 13e3 80be 87e4 90bd
00000050: 31d2 973d 86cf dc3e af70 3b3c 0795 c13c
00000060: aaf5 f43c 58ed 003f e097 a93e 1166 9f3c
00000070: a2ac f8bd c274 e8be 54e6 823e 95ee 073e
00000080: a49f 4b3d bd90 6abe f42c 05bf e07b 27be
00000090: aa9e e1be f400 223f ab3d 3a3e 5699 cfbe
000000a0: bd9c 293c 2742 a63e 8e1d 9a3e b6a3 fb3a
000000b0: e3b7 bd3b 24e2 c7bc 31c1 013e f06e 713e
000000c0: 03d5 50bf fc82 e6be 59c5 f2be baa1 4d3e
000000d0: d6c0 f7be 790f 9a3e 51e0 edbb a9e6 223e
000000e0: 1a29 28bc bc44 923e 1f2b 353f 0251 71be
000000f0: a7d8 463d 0033 46be 2ad9 98be 2518 133f

layer1.1.running_var f4 [64]
0.27336714 0.041596666 0.026396677 0.043466948 0.010234347 0.004901855 0.012080574 0.05327621
0.09645697 0.11694362 0.27572986 0.0826394 0.04320812 0.009584424 0.015940735 0.091103315
0.0040776306 0.023095654 0.17749128 0.008852278 0.038547605 0.33971417 0.009412878 0.071278535
0.060733933 0.0053191143 0.17217748 0.013409959 0.06251228 0.3850131 0.1518074 0.035536002
0.015798375 0.034627672 0.41194218 0.052965365 0.21714933 0.03555123 0.062453266 0.25267416
0.007519707 0.055491608 0.012799591 0.0105637945 0.09097658 0.046373226 0.025085619 0.12559637
0.33332077 0.48515525 0.2738363 0.016530775 0.2079754 0.0024797365 0.0053844736 0.038872853
0.047365226 0.083551936 0.11709511 0.1612422 0.012667695 0.060572144 0.04111394 0.35005164
00000000: c7f6 8b3e 4461 2a3d d83d d83c 660a 323d
00000010: f6ad 273c bd9f a03b 9aed 453c 2838 5a3d
00000020: 3b8b c53d 2380 ef3d 772c 8d3e d93e a93d
00000030: fffa 303d fd07 1d3c 2596 823c 6094 ba3d
00000040: a59d 853b 1933 bd3c 46c0 353e 2509 113c
00000050: 18e4 1d3d 04ef ad3e 7938 1a3c 7bfa 913d
00000060: 25c4 783d f74b ae3b 4b4f 303e 72b5 5b3c
00000070: 7006 803d 7020 c53e 6673 1b3e 338e 113d
00000080: 986b 813c bfd5 0d3d 16ea d23e 36f2 583d
00000090: 655c 5e3e 2b9e 113d ffce 7f3d 825e 813e
000000a0: e067 f63b 2b4b 633d 60b5 513c c413 2d3c
000000b0: ee51 ba3d daf1 3d3d 5b80 cd3c 569c 003e
000000c0: 05a9 aa3e 4566 f83e 4634 8c3e 8c6b 873c
000000d0: 81f7 543e 1383 223b 3d70 b03b 2439 1f3d
000000e0: 0a02 423d 471d ab3d 90cf ef3d ad1c 253e
000000f0: 2a8c 4f3c 7f1a 783d 1767 283d f839 b33e

layer1.3.weight f4 [64, 64, 1, 1]
-0.020261446 -0.13502912 0.16789566 0.004589662 0.09741656 0.019259535 0.029451901 0.004776759
-0.043008056 -0.001802081 0.19128236 -0.050818883 0.09495022 0.07461267 0.040165085 0.062006306
-0.0012079353 0.062076077 -0.042576708 0.093623415 0.09589519 -0.032927107 -0.014920601 -0.029494865
-0.013348085 0.061910342 0.07524839 -0.06639273 -0.09336388 -0.091234535 0.08372975 0.040646
0.13728829 0.036012173 -0.015174426 -0.04586213 -0.01631796 -0.0010685337 0.19279459 -0.0050301333
-0.060474176 0.16095139 0.049277496 -0.07870932 -0.045261815 0.010404761 -0.11553295 -0.11601362
0.24744414 0.008117589 -0.14592357 0.14468315 -0.06571374 0.010322482 -0.13738374 -0.038393356
0.027737418 -0.03334833 0.03713519 0.033761572 -0.044389598 -0.13742323 -0.17857477 0.14376037
0.00021057148 0.06448127 -0.026979793 0.07475156 -0.02871583 0.020718046 0.17489427 0.026576232
0.0661703 -0.025088385 0.03334953 0.019978896 -0.0136455735 -0.11554036 -0.2091323 0.079417035
-0.006741126 -0.014353157 0.04018482 0.5273281 0.061327104 -0.056855187 -0.01961019 0.008047312
0.14082244 -0.024679087 0.0032522567 -0.2613769 -0.06160667 -0.039219387 -0.020809177 -0.012426773
0.052048445 -0.0727162 -0.046751052 -0.057034668 0.021135414 0.049709793 0.09657649 -0.049434766
0.069419466 -0.08916648 0.03052912 0.06663023 0.079398364 -0.035392556 0.016336028 0.021018913
0.16807526 -0.010980039 -0.030519191 0.025071234 -0.008994986 -0.051872753 -0.05744902 -0.102447614
0.050774597 0.083918035 -0.010570474 0.0229401 0.10356782 -0.10239637 -0.039996773 0.0056260843
0.25024158 -0.15985201 0.066803426 -0.04011316 0.044338938 0.14347394 -0.057802588 -0.029647268
-0.013692217 0.06434443 0.007875081 -0.0008820658 0.11595108 0.019203244 0.111850224 -0.16740525
0.028099285 0.060612943 -0.028513366 -0.03191276 -0.01444977 -0.14008309 -0.18558796 -0.09778201
-0.15554671 0.095183715 0.037669253 -0.05018674 -0.21685952 0.01546726 -0.10436261 0.07505523
-0.06619325 -0.12707698 -0.03923406 -0.098312296 -0.0058108415 6.751003e-05 0.09169416 -0.030810507
0.037023857 0.00861443 -0.008976893 -0.055070303 0.002569139 -0.13393721 0.115561284 0.0053452463
0.09503908 -0.09547532 -0.009341166 -0.077686615 0.04572372 -0.20779811 0.032041553 -0.043910645
0.13517052 0.26404363 -0.19158283 0.085410655 0.07514513 0.008918114 0.0694783 -0.04075297
0.048849225 0.019466612 0.115886495 -0.0037702452 -0.10611608 -0.035004817 0.00051690696 -0.07049774
-0.20222871 -0.00606627 -0.006145634 0.083031915 0.028970266 0.0042189267 0.066530466 -0.045939416
0.015935646 0.043546487 -0.079775356 -0.054509655 0.011528268 -0.06771445 -0.012975828 -0.0048935916
-0.14481175 0.30206862 -0.016255079 -0.113420166 -0.008221525 0.06169736 0.019793404 0.12370897
-0.022121571 -0.04299805 0.09386536 -0.04835269 -0.094067104 -0.086864024 0.131606 -0.27482754
0.06456816 0.06007942 -0.033293296 0.0738151 0.0147120645 0.21673666 0.12780866 -0.027464839
-0.022431962 0.020376125 -0.08269103 -0.06042464 -0.14251956 -0.1208662 -0.048187856 0.008240797
-0.025142075 0.022428842 -0.025665918 0.03213271 0.2627025 0.06769034 0.0892561 0.02993223
00000000: 55fb a5bc 1345 0abe d7ec 2b3e e064 963b
00000010: 5582 c73d 2cc6 9d3c 1d45 f13c 5c86 9c3b
00000020: 3729 30bd ce33 ecba 86df 433e 7627 50bd
00000030: 4375 c23d 87ce 983d 2584 243d 53fa 7d3d
00000040: 9553 9eba 7c43 7e3d ea64 2ebd a2bd bf3d
00000050: b364 c43d 93de 06bd 8975 74bc 379f f1bc
00000060: edb1 5abc b395 7d3d d41b 9a3d e9f8 87bd
00000070: 9035 bfbd 2cd9 babd 817a ab3d 6c7c 263d
00000080: 4d95 0c3e 8081 133d 289e 78bc eed9 3bbd
00000090: 3ead 85bc 0b0e 8cba f26b 453e d1d3 a4bb
000000a0: c5b3 77bd 71d0 243e 33d7 493d 5a32 a1bd
000000b0: 7464 39bd bb78 2a3c 8a9c ecbd 8c98 edbd
000000c0: ff61 7d3e a3ff 043c fd6c 15be d227 143e
000000d0: ed94 86bd a11f 293c 53ae 0cbe 5a42 1dbd
000000e0: 9539 e33c 4298 08bd 121b 183d 9349 0a3d
000000f0: ded1 35bd adb8 0cbe 4edc 36be eb35 133e
00000100: dacc 5c39 c20e 843d ba04 ddbc 5917 993d
00000110: 763d ebbc e4b8 a93c 7c17 333e 66b6 d93c
00000120: 4b84 873d 2886 cdbc 8499 083d c8aa a33c
00000130: af91 5fbc 6da0 ecbd c726 56be 66a5 a23d
00000140: aae4 dcbb 8129 6bbc d698 243d f9fe 063f
00000150: 2132 7b3d fce0 68bd 8da5 a0bc dfd8 033c
00000160: c233 103e cc2b cabc d023 553b 31d3 85be
00000170: 4757 7cbd 82a4 20bd 0278 aabc aa99 4bbc
00000180: c030 553d 3bec 94bd 087e 3fbd 2f9d 69bd
00000190: 2d24 ad3c 7f9c 4b3d e5c9 c53d 1c7c 4abd
000001a0: cb2b 8e3d ea9c b6bd 3418 fa3c 6e75 883d
000001b0: 9c9b a23d c9f7 10bd 22d3 853c db2f ac3c
000001c0: ec1b 2c3e 9fe5 33bc 6203 fabc 3062 cd3c
000001d0: b55f 13bc 8678 54bd aa4f 6bbd 0ed0 d1bd
000001e0: 06f9 4f3d 38dd ab3d c82f 2dbc e0ec bb3c
000001f0: 5d1b d43d 30b5 d1bd a8d3 23bd 045b b83b
00000200: aa1f 803e 3fb0 23be 3cd0 883d b24d 24bd
00000210: bf9c 353d d5ea 123e 68c2 6cbd d4de f2bc
00000220: 5255 60bc 03c7 833d 7c06 013c 6f3a 67ba
00000230: c377 ed3d 1f50 9d3c bb11 e53d 486c 2bbe
00000240: 7930 e63c 4745 783d dd94 e9bc f4b6 02bd
00000250: babe 6cbc f171 0fbe c50a 3ebe ef41 c8bd
00000260: a347 1fbe aeef c23d 134b 1a3d 9c90 4dbd
00000270: 6c10 5ebe 646a 7d3c 10bc d5bd 8eb6 993d
00000280: 5490 87bd 7820 02be e5b3 20bd f557 c9bd
00000290: df68 bebb 2c94 8d38 26ca bb3d 5166 fcbc
000002a0: 54a6 173d 8a23 0d3c d113 13bc 6691 61bd
000002b0: 005f 283b d626 09be 65ab ec3d 2d27 af3b
000002c0: d9a3 c23d 9188 c3bd b10b 19bc 291a 9fbd
000002d0: cc48 3b3d 07c9 54be 013e 033d a6db 33bd
000002e0: 246a 0a3e ba30 873e 4a2e 44be c8eb ae3d
000002f0: b1e5 993d 481d 123c a44a 8e3d 96ec 26bd
00000300: 2016 483d 7278 9f3c e655 ed3d 3816 77bb
00000310: 6353 d9bd 3661 0fbd 0a81 073a 1e61 90bd
00000320: 0b15 4fbe 90c7 c6bb 5161 c9bb a30c aa3d
00000330: 0d53 ed3c ec3e 8a3b 2041 883d f82a 3cbd
00000340: 798b 823c cd5d 323d 4361 a3bd 8445 5fbd
00000350: 10e1 3c3c e0ad 8abd 9198 54bc 6c5a a0bb
00000360: 8849 14be bda8 9a3e 5f29 85bc d548 e8bd
00000370: 93b3 06bc 5fb6 7c3d c725 a23c 215b fd3d
00000380: 4c38 b5bc b91e 30bd 7b3c c03d 780d 46bd
00000390: 41a6 c0bd c4e5 b1bd b9c3 063e 32b6 8cbe
000003a0: 503c 843d d715 763d 8d5e 08bd 5f2c 973d
000003b0: df0a 713c 37f0 5d3e 46e0 023e f1fd e0bc
000003c0: 3cc3 b7bc d5eb a63c ea59 a9bd d47f 77bd
000003d0: a6f0 11be b388 f7bd a160 45bd 6804 073c
000003e0: c1f6 cdbc b1bc b73c 5541 d2bc 979d 033d
000003f0: f180 863e 3ca1 8a3d e7cb b63d 7034 f53c

layer1.4.weight f4 [64]
1.3680127 1.4756303 1.3015794 1.4872507 1.0342255 1.3937393 0.81705225 0.8864034
1.7399004 1.2240065 1.1124091 1.0314586 1.2432531 1.2676024 1.7029356 1.8209879
1.6124426 1.0467824 1.188187 1.8885218 0.97773886 1.2648602 0.7391848 1.695866
1.236915 1.3440241 1.0387963 1.1865169 1.975849 1.5487379 1.1426238 1.1922361
1.1556255 2.2871616 1.4381425 2.0451531 1.0225352 1.8417641 1.3212451 1.0508723
1.7212712 1.635347 1.652072 1.4600531 1.0219241 1.8685333 0.3167711 1.9092494
1.7414404 1.5646222 1.3821348 1.5133879 2.6041946 1.1789229 1.7835635 0.8213453
1.5571417 1.4672722 1.2201588 1.2520525 1.2485324 0.568818 1.1667954 1.8886889
00000000: 0a1b af3f 74e1 bc3f 279a a63f 3b5e be3f
00000010: 8061 843f 0d66 b23f 562a 513f 55eb 623f
00000020: 0eb5 de3f 3fac 9c3f 6c63 8e3f d606 843f
00000030: eb22 9f3f cc40 a23f cbf9 d93f 2216 e93f
00000040: 8564 ce3f f7fc 853f 8316 983f 15bb f13f
00000050: 184d 7a3f f0e6 a13f 373b 3d3f 2312 d93f
00000060: 3b53 9e3f fb08 ac3f 47f7 843f c9df 973f
00000070: 9fe8 fc3f 0b3d c63f 7f41 923f 319b 983f
00000080: 89eb 933f db60 1240 0e15 b83f cae3 0240
00000090: 6fe2 823f edbe eb3f 8f1e a93f fc82 863f
000000a0: 9d52 dc3f 0d53 d13f 1877 d33f 05e3 ba3f
000000b0: 69ce 823f 192c ef3f d22f a23e 4962 f43f
000000c0: 85e7 de3f 8a45 c83f cbe9 b03f b2b6 c13f
000000d0: 20ab 2640 f2e6 963f cf4b e43f b043 523f
000000e0: 6b50 c73f 93cf bb3f 2a2e 9c3f 4243 a03f
000000f0: e9cf 9f3f 0e9e 113f 8d59 953f 8fc0 f13f

layer1.4.bias f4 [64]
0.946519 1.0962981 0.88307357 1.7021594 0.59164673 0.741194 0.68573034 0.97699046
0.21497624 1.1024834 1.1589956 0.29053834 1.4990543 0.831605 0.63836277 1.0820462
0.6506817 0.93717843 1.0934278 1.1836654 0.8977211 0.60036224 0.9489746 1.2536808
1.3879608 0.5849932 0.61346465 0.68811584 0.79916686 1.1934847 0.5351128 0.8279627
1.0069395 0.92647225 0.27022833 0.49844834 1.1257389 1.1789364 0.48869833 1.6210498
0.4828278 0.42514822 1.4107867 1.2686105 0.7824382 0.70847625 0.8608148 0.5702408
1.6512666 0.89798963 1.1357924 1.0889988 0.64012617 0.72688866 1.1293876 0.9598766
0.63427526 0.3404378 0.9095948 0.5087085 0.5898281 0.9187867 1.0257292 0.06731506
00000000: 124f 723f 7f53 8c3f 1c11 623f 5ce0 d93f
00000010: 2976 173f e4be 3d3f 068c 2f3f 0c1c 7a3f
00000020: bb22 5c3e 2d1e 8d3f f859 943f 71c1 943e
00000030: 03e1 bf3f 11e4 543f be6b 233f 7d80 8a3f
00000040: 1393 263f edea 6f3f 71f5 8b3f 5982 973f
00000050: 0dd1 653f 57b1 193f 00f0 723f 9d78 a03f
00000060: b3a8 b13f 1dc2 153f 050c 1d3f 5c28 303f
00000070: 3396 4c3f 1bc4 983f 27fd 083f 5df5 533f
00000080: 65e3 803f 492d 6d3f 5e5b 8a3e 9f34 ff3e
00000090: 3618 903f 63e7 963f ab36 fa3e 8f7e cf3f
000000a0: 3535 f73e 07ad d93e a994 b43f d461 a23f
000000b0: df4d 483f b35e 353f 5c5e 5c3f 4dfb 113f
000000c0: b45c d33f a6e2 653f a561 913f 5064 8b3f
000000d0: 4fdf 233f 6015 3a3f c68f 903f 79ba 753f
000000e0: dd5f 223f dd4d ae3e 34db 683f b83a 023f
000000f0: f9fe 163f 9b35 6b3f 184b 833f 7adc 893d

layer1.4.running_mean f4 [64]
0.48873258 0.8687286 -0.28265506 -0.028068159 0.88684773 0.4115592 -0.014585573 -0.04413203
-0.013760593 -0.5512851 -0.6852559 0.017917952 -0.5309146 0.0475775 0.18407992 0.544796
-0.48853067 -0.67134637 -0.2263397 -0.29059356 -0.33939576 -0.61255234 -0.40909454 -0.49776885
0.21336259 -0.58468986 -0.20068029 -0.21090467 0.24526285 -0.073022775 -0.6890505 0.5645722
0.19297001 -0.5425283 -0.9238502 -0.38286042 -0.2165322 -0.4243139 -0.1877766 0.253552
-0.59332603 -0.022330998 0.06608638 -0.14638548 -0.36103112 -0.40200198 -0.43099412 -0.14138992
-0.14678727 -0.30606416 -0.19444154 -0.37239802 -0.13885309 -0.6772218 0.33529794 -0.15807907
0.5547891 -0.019685164 -0.8062942 0.748304 0.57090396 0.09881306 -0.012269263 -0.06361161
00000000: 283b fa3e ff64 5e3f 2ab8 90be 32ef e5bc
00000010: 7408 633f e3b7 d23e 54f8 6ebc cac3 34bd
00000020: 1c74 61bc 0521 0dbf ee6c 2fbf abc8 923c
00000030: 05ea 07bf a0e0 423d 727f 3c3e c077 0b3f
00000040: b120 fabe 5bdd 2bbf 98c5 67be aec8 94be
00000050: 48c5 adbe 3bd0 1cbf d774 d1be 8fdb febe
00000060: b97b 5a3e 3cae 15bf 227f 4dbe 65f7 57be
00000070: 2f26 7b3e f78c 95bd 9d65 30bf ce87 103f
00000080: ee99 453e 22e3 0abf 7281 6cbf 4806 c4be
00000090: 9eba 5dbe ac3f d9be 8248 40be 91d1 813e
000000a0: 37e4 17bf 7fef b6bc 4c58 873d 13e6 15be
000000b0: 12d9 b8be 34d3 cdbe 43ab dcbe 85c8 10be
000000c0: 674f 16be 71b4 9cbe af1b 47be f4aa bebe
000000d0: 812f 0ebe 685e 2dbf 2cac ab3e 7bdf 21be
000000e0: a906 0e3f c842 a1bc 4c69 4ebf da90 3f3f
000000f0: c326 123f 805e ca3d 0505 49bc ce46 82bd

layer1.4.running_var f4 [64]
0.3484615 0.13920555 0.27632558 0.21275899 0.18549414 0.27769 0.14726123 0.25650173
0.3227489 0.17387386 0.16691077 0.17068762 0.18343152 0.21183981 0.21562576 0.33913296
0.13240065 0.316664 0.18332483 0.44273573 0.2917656 0.21990661 0.10458908 0.19822617
0.18331015 0.3558856 0.1516091 0.12162749 0.18020844 0.23980558 0.34333077 0.18646449
0.28687117 0.37086812 0.19723785 0.17363355 0.16513295 0.34975982 0.42252463 0.13943183
0.23935822 0.24459797 0.3148786 0.23322822 0.26316276 0.2912277 0.37291035 0.45039266
0.20757966 0.15445106 0.22785532 0.18711214 0.22898975 0.18791944 0.19204342 0.15835498
0.327283 0.19169116 0.46504363 0.39431658 0.30337855 0.14437816 0.3017833 0.283583
00000000: 8c69 b23e e68b 0e3e 8c7a 8d3e 7edd 593e
00000010: 2df2 3d3e 622d 8e3e a6cb 163e 3254 833e
00000020: 583f a53e fd0b 323e a8ea 2a3e bcc8 2e3e
00000030: 79d5 3b3e 89ec 583e 00cd 5c3e d6a2 ad3e
00000040: 0994 073e c921 a23e 81b9 3b3e 42ae e23e
00000050: 4d62 953e 332f 613e cd32 d63d cdfb 4a3e
00000060: a8b5 3b3e a336 b63e 6a3f 1b3e d517 f93d
00000070: 9088 383e 988f 753e 0dc9 af3e 8cf0 3e3e
00000080: c7e0 923e 6de2 bd3e b8f8 493e fecc 313e
00000090: 9d18 293e b813 b33e 2655 d83e 38c7 0e3e
000000a0: 521a 753e e477 7a3e c537 a13e 61d3 6e3e
000000b0: 45bd 863e cc1b 953e 1bee be3e de99 e63e
000000c0: c38f 543e 6b28 1e3e e852 693e 539a 3f3e
000000d0: 4a7c 6a3e f46d 403e 08a7 443e cf27 223e
000000e0: a391 a73e b04a 443e 331a ee3e dde3 c93e
000000f0: 6f54 9b3e ded7 133e 5783 9a3e ca31 913e

layer2.0.weight f4 [64, 1, 3, 3]
0.15694429 0.16328949 0.10849161 0.12488226 0.28449142 0.06123883 0.12689891 0.24627551
0.1838591 0.24745126 0.25633436 0.13954611 0.23084725 0.17414059 0.16550343 0.14041434
0.10267673 0.081117354 0.033421706 -0.14562292 -0.19363004 -0.030551782 -0.29449275 -0.23573792
-0.020144058 -0.18340576 -0.16424547 0.012673994 0.15198877 0.194056 0.12187027 0.16053796
-0.20981333 -0.014397127 -0.0837003 -0.45325515 0.13361143 0.269727 0.18013835 -0.08783273
0.09644209 0.2919033 -0.21104892 -0.016807282 0.22638665 0.18335114 0.21114376 0.02815756
0.10507663 0.19531524 0.14262079 0.302296 0.2191695 0.27690285 0.17926084 0.14795807
0.24407351 0.15596505 0.26585278 0.21915267 0.10008218 0.17173244 0.11796809 0.14479141
0.028534947 -0.08357694 -0.023965396 0.1212983 0.19705918 -0.11812551 -0.03037466 0.4082334
0.08052459 -0.00072435115 -0.104882844 0.23044752 0.1438063 -0.17818047 0.30074778 0.17525755
-0.115133554 -0.04419164 -0.04702818 0.09916084 -0.035635825 0.037174746 0.22635034 0.10337847
0.026662562 0.2056333 -0.15031984 -0.09984622 -0.10532921 -0.20031986 -0.15233463 -0.022018412
-0.20166838 -0.08858615 0.031771082 -0.06576979 -0.08801965 -0.086978465 -0.17424734 -0.14020303
-0.17873268 -0.10729823 -0.23502484 -0.23977211 -0.06443081 -0.12033551 -0.11489419 0.009930898
-0.010960884 0.048383858 -0.07686084 0.10497725 0.27002355 0.03894245 -0.23424076 -0.43596098
0.09547479 -0.07598742 -0.20254238 0.11732497 0.023379851 -0.20056148 -0.1905676 -0.3971732
-0.39235094 0.15695454 0.09114905 0.07049621 0.11829073 0.38227096 0.21852319 0.064347126
0.2260447 0.2776566 0.13781871 0.22176246 0.30909398 0.1474253 0.10279442 0.38883317
0.3061731 0.17127159 -0.13694347 0.2161123 0.24023661 0.04941137 -0.036023647 0.06137641
0.26007867 -0.020393275 -0.06899423 -0.22059333 0.044482403 -0.118385054 -0.25412178 0.016364004
-0.1063473 -0.26231673 0.2595221 0.030239299 0.074091084 0.19393817 0.18308829 -0.05962291
0.12848075 -0.098365664 -0.2314216 0.23711777 0.120794065 0.2257378 0.1990339 0.040344507
0.06924141 0.15780528 0.19213632 0.10423048 0.24455093 0.25685626 0.30004275 0.1791749
0.401938 0.2410244 0.14352947 0.1496262 0.08166795 -0.042450078 -0.1157689 0.03965055
-0.2670332 -0.07890195 0.05893989 -0.34840754 -0.1833744 -0.07768945 0.12563133 0.15313016
0.26192048 0.13615291 0.09510264 -0.05046739 -0.070075616 -0.23873827 -0.3442648 0.12348475
0.2745134 0.24336702 0.05769253 0.24887598 0.114953384 -0.04549545 -0.04176021 -0.03199639
0.018003656 0.032481395 -0.21155095 -0.0429474 -0.08420455 -0.24356627 -0.10396289 -0.06774713
-0.19773397 -0.039020587 0.051571988 0.14836976 -0.05362684 0.34612054 0.27784538 -0.029219424
0.13206412 0.21109702 0.06443545 0.17042392 0.15418786 0.06703286 0.15937121 0.24413164
0.015837114 0.12417605 0.23217608 0.13778603 0.1607114 0.1910383 0.22475813 0.3588884
0.26907608 0.19279516 0.2070254 0.18024266 0.07090544 -0.046278484 -0.015267273 -0.058147736
00000000: 01b6 203e 5c35 273e d930 de3d 45c2 ff3d
00000010: dca8 913e 91d5 7a3d caf1 013e a62f 7c3e
00000020: 8f45 3c3e dd63 7d3e 423e 833e 2de5 0e3e
00000030: 3963 6c3e e951 323e bb79 293e c7c8 0f3e
00000040: 2d48 d23d db20 a63d 33e5 083d 2d1e 15be
00000050: f446 46be bb47 fabc c1c7 96be 4865 71be
00000060: 2705 a5bc b8ce 3bbe f72f 28be 95a6 4f3c
00000070: f2a2 1b3e 9eb6 463e 1f97 f93d 1064 243e
00000080: 4ed9 56be ede1 6bbc 106b abbd 0f11 e8be
00000090: 6fd1 083e a819 8a3e 3076 383e a5e1 b3bd
000000a0: 6e83 c53d 5974 953e 351d 58be 6daf 89bc
000000b0: e7d1 673e 67c0 3b3e 1236 583e afaa e63c
000000c0: 6b32 d73d b800 483e 2f0b 123e 8bc6 9a3e
000000d0: f86d 603e 36c6 8d3e 2790 373e 5282 173e
000000e0: 68ee 793e 4db5 1f3e db1d 883e 8f69 603e
000000f0: e3f7 cc3d a1da 2f3e 4199 f13d 3344 143e
00000100: 1fc2 e93c 632a abbd 1453 c4bc 3e6b f83d
00000110: e2c9 493e caeb f1bd 47d4 f8bc f803 d13e
00000120: 14ea a43d 62e2 3dba d1cc d6bd 6ffa 6b3e
00000130: f541 133e f174 36be 9dfb 993e b776 333e
00000140: 24cb ebbd 4b02 35bd 9fa0 40bd d714 cb3d
00000150: dff6 11bd 8c44 183d 62c8 673e 17b8 d33d
00000160: 726b da3c 8991 523e 72ed 19be 2d7c ccbd
00000170: d7b6 d7bd a620 4dbe 9cfd 1bbe f55f b4bc
00000180: 2882 4ebe a86c b5bd 6522 023d 50b2 86bd
00000190: a543 b4bd c421 b2bd e56d 32be 6291 0fbe
000001a0: b305 37be 2dbf dbbd 5aaa 70be d286 75be
000001b0: 4df4 83bd 7772 f6bd a54d ebbd 35b5 223c
000001c0: 4895 33bc 272e 463d 3769 9dbd 50fe d63d
000001d0: 8740 8a3e 1e82 1f3d cfdc 6fbe 4736 dfbe
000001e0: 4988 c33d 4b9f 9bbd 4567 4fbe 1348 f03d
000001f0: 1a87 bf3c fd5f 4dbe 2724 43be 495a cbbe
00000200: 39e2 c8be b1b8 203e 5aac ba3d 5160 903d
00000210: 6942 f23d 05b9 c33e 8bc4 5f3e 6dc8 833d
00000220: 4378 673e 0229 8e3e 5920 0d3e b315 633e
00000230: 9141 9e3e a8f6 163e e285 d23d 2415 c73e
00000240: b8c2 9c3e d261 2f3e e93a 0cbe 8b4c 5d3e
00000250: 9600 763e 9463 4a3d 888d 13bd d565 7b3d
00000260: 0829 853e cc0f a7bc d94c 8dbd 38e3 61be
00000270: 2e33 363d dd73 f2bd 401c 82be ce0d 863c
00000280: 9dcc d9bd 614e 86be 15e0 843e 68b8 f73c
00000290: 11bd 973d ba97 463e 7f7b 3b3e 2737 74bd
000002a0: 7590 033e f073 c9bd c9f9 6cbe 00cf 723e
000002b0: e162 f73d cf27 673e 8bcf 4b3e 4840 253d
000002c0: 71ce 8d3d b597 213e 62bf 443e ca76 d53d
000002d0: 8f6b 7a3e aa82 833e 349f 993e a079 373e
000002e0: d1ca cd3e 1acf 763e 64f9 123e 9c37 193e
000002f0: 8741 a73d 22e0 2dbd 3f18 edbd 9d68 223d
00000300: 93b8 88be 5897 a1bd f46a 713d 7962 b2be
00000310: 80c6 3bbe a51b 9fbd 80a5 003e 27ce 1c3e
00000320: 711a 863e ab6b 0b3e 2cc5 c23d e5b6 4ebd
00000330: ce83 8fbd ce77 74be 7a43 b0be 93e5 fc3d
00000340: 058d 8c3e 3435 793e 014f 6c3d 58d9 7e3e
00000350: ae6c eb3d 7059 3abd c10c 2bbd a60e 03bd
00000360: 677c 933c 360b 053d d0a0 58be 9de9 2fbd
00000370: 6f73 acbd 7069 79be 7fea d4bd 02bf 8abd
00000380: c67a 4abe 0dd4 1fbd 263d 533d 3eee 173e
00000390: d1a7 5bbd b636 b13e c041 8e3e 935d efbc
000003a0: d13b 073e d129 583e bcf6 833d 9c83 2e3e
000003b0: 6ce3 1d3e 8648 893d 3532 233e a5fd 793e
000003c0: d6bc 813c 0350 fe3d 91bf 6d3e c817 0d3e
000003d0: 8791 243e 8b9f 433e ff26 663e 38c0 b73e
000003e0: 57c4 893e 186c 453e 77fe 533e 8891 383e
000003f0: df36 913d 828e 3dbd 9623 7abc 522c 6ebd

layer2.1.weight f4 [64]
0.74126536 0.7018455 0.5509645 0.8499383 0.610953 0.5836779 0.64351034 0.576632
0.6182864 0.69696236 0.48177382 0.5863277 0.6156745 0.59877074 0.8407021 0.6392184
0.95051533 0.59082973 0.5868458 0.93116826 0.516206 0.41919246 0.64338386 0.59327245
0.5801585 0.7059226 0.6899316 0.6048341 0.6215049 0.5992428 0.6197981 0.5058414
0.5580368 0.88925356 0.7586896 0.827754 0.58125985 0.7042426 0.94659764 0.5226752
0.5902334 0.57963866 0.85193044 0.56867105 0.6269442 0.81038034 0.65299785 0.7600488
0.7182603 0.62359804 0.61685 0.71689725 0.743817 0.8703992 0.5935968 0.53346366
0.58675253 0.50872654 0.5725958 0.9101432 0.53591335 0.56905895 0.65695256 0.6291341
00000000: 91c3 3d3f 26ac 333f 020c 0d3f 8e95 593f
00000010: 6a67 1c3f ea6b 153f 18bd 243f 289e 133f
00000020: 0448 1e3f 206c 323f 0fab f63e 9219 163f
00000030: d89c 1d3f 0a49 193f 4138 573f d1a3 233f
00000040: f954 733f 9e40 173f 873b 163f 0b61 6e3f
00000050: 1426 043f 65a0 d63e ceb4 243f b4e0 173f
00000060: 4485 143f 58b7 343f 5b9f 303f 68d6 1a3f
00000070: f21a 1f3f fa67 193f 17ab 1e3f d27e 013f
00000080: 80db 0e3f 1fa6 633f 7b39 423f b0e7 533f
00000090: 72cd 143f 3e49 343f 3954 723f 0bce 053f
000000a0: 8919 173f 3363 143f 1d18 5a3f 6d94 113f
000000b0: 6a7f 203f 1675 4f3f de2a 273f 8f92 423f
000000c0: e8df 373f 1fa4 1f3f e2e9 1d3f 9486 373f
000000d0: ca6a 3e3f 7bd2 5e3f f6f5 173f 1391 083f
000000e0: 6a35 163f e73b 023f a395 123f 25ff 683f
000000f0: 9e31 093f d9ad 113f 0b2e 283f ef0e 213f

layer2.1.bias f4 [64]
0.6124656 0.3991844 0.79327625 -0.029322524 0.99471605 0.833583 0.588833 0.8307051
0.48954934 0.09776667 1.0776695 1.1175542 0.79907477 0.9003545 0.090041734 0.52188617
0.25048935 0.66902715 0.7153201 0.00026436642 0.9559067 0.7879363 0.47103736 0.64252377
1.0428284 0.7570906 0.6890612 0.79843587 1.1649077 0.67957604 0.43479002 1.1512272
0.7379431 0.2045819 -0.030121904 0.55572605 0.8701374 1.111773 -0.020447722 0.7277397
1.3192333 0.7008365 -0.68993205 0.8211016 0.29768443 0.5159191 0.5560004 0.6144974
0.38870665 0.7241481 0.81362945 0.45170322 0.68112856 -0.007461716 1.1786733 0.89819235
0.86211455 1.1930563 0.7295553 -0.21284258 1.1451502 1.094104 0.3006896 0.8164776
00000000: 8cca 1c3f e661 cc3e 2714 4b3f ca35 f0bc
00000010: b6a5 7e3f b265 553f c2bd 163f 17a9 543f
00000020: 36a6 fa3e e439 c83d 13f1 893f 040c 8f3f
00000030: 2a90 4c3f a27d 663f cd67 b83d 559a 053f
00000040: 2440 803e 5d45 2b3f 381f 373f a99a 8a39
00000050: 4db6 743f 31b6 493f cf2b f13e 707c 243f
00000060: 677b 853f b1d0 413f 5166 303f 4b66 4c3f
00000070: b21b 953f b2f8 2d3f cc9c de3e 6a5b 933f
00000080: d7e9 3c3f eb7d 513e 36c2 f6bc 1044 0e3f
00000090: 53c1 5e3f 944e 8e3f fb81 a7bc 264d 3a3f
000000a0: a3dc a83f 056a 333f 639f 30bf b733 523f
000000b0: 186a 983e 4613 043f 0b56 0e3f b44f 1d3f
000000c0: 8f04 c73e c561 393f 054a 503f a545 e73e
000000d0: 715e 2e3f 6981 f4bb c4de 963f efef 653f
000000e0: 8ab3 5c3f 12b6 983f 23c4 3a3f 68f3 59be
000000f0: 4894 923f 9a0b 8c3f fdf3 993e ad04 513f

layer2.1.running_mean f4 [64]
1.6773567 1.922176 -1.3282986 -0.24850817 0.64722323 1.6364954 1.2021432 0.62738085
0.40422437 0.68233323 -1.1422721 -0.6935469 0.108780436 -0.83405197 0.11929017 2.5999198
1.0681419 -1.0727766 0.517574 1.8503609 1.9800972 -0.8182532 0.032999013 1.2379506
-1.2842118 0.8791941 0.9038226 1.5708128 -1.1254236 2.040962 1.0546867 -1.1200758
1.1260955 1.9933183 0.97174716 1.6935512 1.740896 -1.9371758 -0.003274764 -1.5863432
-0.9447191 1.1910781 -0.66779053 1.61348 -0.18061794 1.4538796 -1.3750163 1.6939036
-0.5914167 1.6018492 1.7650734 -0.33785293 1.7387493 -0.052745506 -1.7194942 -0.12631159
1.1757507 -0.7297469 -1.7103397 0.03960776 -0.73993975 0.026212154 1.3046787 1.0835124
00000000: a0b3 d63f dd09 f63f b005 aabf ed78 7ebe
00000010: 6cb0 253f ae78 d13f d4df 993f 089c 203f
00000020: 7ff6 ce3e 64ad 2e3f f935 92bf 4a8c 31bf
00000030: 47c8 de3d 6e84 55bf 684e f43d 1665 2640
00000040: e0b8 883f be50 89bf bb7f 043f a0d8 ec3f
00000050: d373 fd3f 0b79 51bf f929 073d 2a75 9e3f
00000060: 0d61 a4bf dd12 613f eb60 673f 6510 c93f
00000070: e10d 90bf 1f9f 0240 f9ff 863f a55e 8fbf
00000080: e623 903f 0e25 ff3f 6cc4 783f 49c6 d83f
00000090: aed5 de3f 60f5 f7bf 6c9d 56bb 4b0d cbbf
000000a0: 1cd9 71bf 3f75 983f 52f4 2abf 8386 ce3f
000000b0: e9f3 38be ba18 ba3f 8900 b0bf d5d1 d83f
000000c0: 1667 17bf 6509 cd3f eded e13f 0ffb acbe
000000d0: 568f de3f ac0b 58bd 6318 dcbf d357 01be
000000e0: 007f 963f b1d0 3abf 69ec dabf bf3b 223d
000000f0: b16c 3dbf dfba d63c b6ff a63f 89b0 8a3f

layer2.1.running_var f4 [64]
1.6159662 1.9718901 0.7828214 0.83941436 0.41044968 1.1860151 0.579688 0.21176828
0.2523351 0.2621167 0.46891633 0.45117027 0.13069487 0.56942165 1.0892133 3.3347504
1.1384004 0.329839 0.35853 1.8002834 0.89556587 0.3573574 0.1727149 1.4253486
0.4578543 0.70476973 0.52238727 1.5399029 0.9482908 2.6713052 0.5621751 0.7384025
0.74119145 2.8624806 1.0197732 3.7712183 0.93410516 1.9952275 0.13754039 0.90390205
0.6107202 1.0890496 0.418794 1.2924794 0.1945401 1.7318566 0.10193051 2.3419878
1.318892 2.222778 1.442069 0.5639528 3.9521825 0.111365974 1.7786939 0.15752384
0.686978 0.5217565 0.6382696 0.14226274 0.3602368 0.16827974 0.92550665 0.72568613
00000000: fbd7 ce3f e566 fc3f fc66 483f dce3 563f
00000010: 7626 d23e 58cf 973f 6f66 143f c9d9 583e
00000020: 1132 813e 2934 863e cd15 f03e caff e63e
00000030: e0d4 053e 9ec5 113f 576b 8b3f 8d6c 5540
00000040: 1bb7 913f a8e0 a83e 3f91 b73e b06f e63f
00000050: ce43 653f 8df7 b63e 2ddc 303e d371 b63f
00000060: e16b ea3e ca6b 343f 2cbb 053f 8a1b c53f
00000070: 30c3 723f aaf6 2a40 b5ea 0f3f f207 3d3f
00000080: b9be 3d3f e232 3740 ee87 823f a45b 7140
00000090: 8421 6f3f 9d63 ff3f 63d7 0c3e 2066 673f
000000a0: 2958 1c3f fa65 8b3f 2b6c d63e f76f a53f
000000b0: 8535 473e 7aad dd3f f1c0 d03d 21e3 1540
000000c0: 74d1 a83f ff41 0e40 b895 b83f 365f 103f
000000d0: 8ff0 7c40 d813 e43d 3eac e33f ee4d 213e
000000e0: cadd 2f3f d591 053f a365 233f 53ad 113e
000000f0: f570 b83e 8651 2c3e 01ee 6c3f 91c6 393f
